
Model: "sequential"

 Layer (type)                          Output Shape                         Param # 

 dense (Dense)                         (None, 32)                             2,080 

 dense_1 (Dense)                       (None, 32)                             1,056 

 dense_2 (Dense)                       (None, 32)                             1,056 

 dense_3 (Dense)                       (None, 32)                             1,056 

 dense_4 (Dense)                       (None, 32)                             1,056 

 dense_5 (Dense)                       (None, 1)                                 33 

 Total params: 6,337 (24.75 KB)
 Trainable params: 6,337 (24.75 KB)
 Non-trainable params: 0 (0.00 B)
tf.Tensor([6301   64], shape=(2,), dtype=int32)
tf.Tensor([6301], shape=(1,), dtype=int32)
processing fold # 0
tf.Tensor([5041   64], shape=(2,), dtype=int32)
Epoch 1/20
158/158  2s 5ms/step - loss: 0.1071    
Epoch 2/20
158/158  0s 839us/step - loss: 0.0601
Epoch 3/20
158/158  0s 958us/step - loss: 0.0488
…
